Projects/AGP_Example3_MLBalancingBall/Assets/CuteAgent.onnx (onnx, 76074 bytes, 9 tensors)

50 f4 [12]
000000 ca 31 04 3d 54 12 04 3d 5c 5a 08 3f 5c 5a 08 3f
       0.032274045 0.03224404 0.5326288 0.5326288
000010 5c 5a 08 3f b9 f5 47 3f c1 27 34 3f 60 f8 1d 3f
       0.5326288 0.7810932 0.7037316 0.61707115
000020 92 68 33 3f 0e 60 a9 3f 06 be 63 40 e0 f7 a8 3f
       0.70081437 1.3232439 3.558473 1.3200645

action_model._continuous_distribution.log_sigma f4 [1, 2]
000000 8f b9 ed be a9 b0 e4 be
       -0.46430632 -0.4466603

action_model._continuous_distribution.mu.bias f4 [2]
000000 e5 12 fc bb c6 9f 75 3b
       -0.007692682 0.0037479266

action_model._continuous_distribution.mu.weight f4 [2, 128]
000000 f9 97 9c 3c fa 6e 13 3e 99 7f ca bc 60 73 0e 3c
       0.019115435 0.14397803 -0.024719046 0.0086945
000010 86 5e 5a 3d 66 6e ac 38 15 0b a6 bb 31 c5 fa bb
       0.0533128 8.2221624e-05 -0.005067239 -0.0076529016
000020 ff 18 8a bb 68 d4 ea 3c c5 ea f9 bc 77 1d 81 bd
       -0.0042144055 0.028665736 -0.030507455 -0.06304448
000030 82 be 61 3b 45 cf f6 3a e1 4f 8b bc 7e 53 96 bc
       0.0034445827 0.0018830082 -0.017005863 -0.018350359
000040 b1 59 23 3c aa 00 25 bb f6 68 66 bc ab d6 69 bc
       0.009970115 -0.0025177398 -0.014063111 -0.014272372
000050 26 9d 2c 3b 72 e3 1a bd d6 f7 8b bd d2 fd 39 bd
       0.0026338785 -0.037814565 -0.0683438 -0.045408078
000060 3f bf 03 bd f6 91 e3 3d 2c 5f 84 bb a2 38 df 3a
       -0.03216481 0.11111824 -0.0040396657 0.0017030428
000070 f4 fe 1f bd b2 bb bb 3d cf 75 20 3a 29 66 31 bb
       -0.0390615 0.091666594 0.00061210705 -0.002706895
000080 d9 e6 45 bb 6b 9f e6 3a 07 33 2a bc 8c 46 b6 3d
       -0.003019741 0.0017595118 -0.010388142 0.089001745
000090 cb b3 fb 3a ba 96 26 bc 48 8f 80 3d a9 a3 1c bd
       0.0019203363 -0.010167772 0.06277329 -0.038242016
0000a0 79 e0 35 bc 8c fb 21 bc 9b 61 99 bc 1f 02 65 3b
       -0.011100882 -0.009886634 -0.0187233 0.0034943891
0000b0 f6 e6 5d 3d fc dd 3c bb 4b a7 e9 bb 00 a3 4e bb
       0.05417534 -0.0028818836 -0.0071305386 -0.003153026
0000c0 41 ac 5e bb 52 c1 cd bb 77 9d 3e 3d d3 dc 0c bd
       -0.0033977183 -0.006279149 0.04653689 -0.034390282
0000d0 62 6a d1 b9 05 06 4f 3d 14 66 8c 39 ce c6 da 3c
       -0.00039942848 0.05054285 0.00026778935 0.026706126
0000e0 84 d6 a2 3a d8 1a ec ba 84 44 ff 3b f0 e1 c6 bb
       0.001242355 -0.0018013371 0.00779015 -0.0060694143
0000f0 61 98 cd 3c 10 cc 1b 3d 79 16 93 3b be cb 3f bd
       0.025097074 0.038036406 0.004488763 -0.046825163
000100 42 45 ce bd 20 7c a1 bd c1 03 ef bd 69 61 55 3b
       -0.10071804 -0.07885003 -0.11670638 0.0032559282
000110 6e 71 c8 bb 29 45 9c 3d f3 ad 31 3c 1c 17 18 3c
       -0.0061170375 0.07630379 0.010844695 0.009282853
000120 cb 9f c7 3c 36 10 13 3c a8 a3 7c 3d 92 a8 82 bb
       0.024368187 0.008976033 0.061679512 -0.0039873803
000130 c8 08 00 3b 12 64 bd bb f0 c0 e7 3a 3c ee 5b 38
       0.0019536484 -0.0057797516 0.0017681401 5.2435542e-05
000140 7d 8f 11 3c bd 7e 2a bc 3d 31 7c 3b 95 86 ab bc
       0.008884308 -0.010406193 0.0038481497 -0.020938197
000150 33 63 7f 3b 15 c0 20 bd 00 6b 37 3c 25 14 58 bb
       0.003896904 -0.039245684 0.011194944 -0.0032970991
000160 67 b8 67 3c e1 07 31 3c 39 45 76 3b 7c cd d1 b9
       0.014143086 0.010805101 0.003757788 -0.00040016684
000170 7f 59 79 bc 06 a6 b1 ba b2 9f de 3d e3 47 8e 3c
       -0.015219091 -0.0013553507 0.10870303 0.017368263
000180 13 56 8f 3c 7a 3d e8 ba 61 14 2e bb 05 32 90 3d
       0.017497098 -0.0017718517 -0.002656244 0.070407905
000190 05 ca c3 bb 5a e5 8b 3c 52 af 94 bd a9 8e 59 bb
       -0.0059750103 0.017077137 -0.07260002 -0.0033196604
0001a0 0b 42 ba bd ad 80 df 3b 93 23 76 bc e1 2c a5 bc
       -0.09094628 0.0068207593 -0.01502313 -0.020163001
0001b0 8a d1 f2 3b 58 89 85 3d ef 18 88 38 25 f1 59 ba
       0.007410233 0.06520337 6.4896296e-05 -0.00083138264
0001c0 d5 94 f0 3a da f7 04 bd bd 2e 14 bc 00 c5 0f bd
       0.0018354902 -0.032462932 -0.009044346 -0.035099983
0001d0 5c c7 63 3b 9b be e8 3b 4d 87 33 bc 91 6e e7 bc
       0.0034756279 0.0071028 -0.010957551 -0.028250964
0001e0 df 88 6b bb c0 b4 2d 3d 96 b2 1d bb 70 75 54 bc
       -0.0035939736 0.042408705 -0.0024062744 -0.012967452
0001f0 77 11 2b bd 4e 5d 03 3c 85 91 a2 bb ae 54 bc 3c
       -0.041764703 0.008017851 -0.004961195 0.022989597
000200 18 f7 6a bc ac 13 52 3b fd a7 16 bd 5d e6 e2 3c
       -0.014341138 0.0032055182 -0.0367813 0.027697736
000210 0a 8f 87 3d 91 90 61 bb 24 36 06 bb 5b df 4b bc
       0.066190794 -0.0034418444 -0.0020479048 -0.012443389
000220 a1 e5 b3 3b cd 25 26 bd 08 b1 5a bd 80 36 19 3c
       0.0054900204 -0.040563393 -0.053391486 0.009351373
000230 ad a6 e0 ba 84 d1 94 bc fe b4 13 3d d7 cf a0 bb
       -0.0017139517 -0.018166311 0.03606128 -0.004907589
000240 e0 87 3b 3c 39 2b 86 ba fc e8 10 bd f1 d3 c4 bc
       0.011445969 -0.001023627 -0.03537844 -0.024026843
000250 41 f5 dc 3d f4 6a cb 3d 56 58 81 3c 6d 72 45 bd
       0.10788966 0.09932509 0.015789192 -0.048204828
000260 5b bc 7a bc b7 66 45 bc fa cd ab bb 67 39 d1 3b
       -0.0153036965 -0.012048415 -0.00524306 0.0063850167
000270 34 13 4a bd c0 e8 ae 3c e3 61 50 3b 85 4c d4 ba
       -0.04933472 0.021351218 0.0031796626 -0.0016197121
000280 e2 e3 f3 3a c7 35 6a bc 3a d5 ab ba b2 f6 36 3d
       0.0018607343 -0.014295048 -0.0013109811 0.04466886
000290 1b b3 1f 3d a9 a1 2c 3c b8 25 e7 bc ea 84 75 bd
       0.038989168 0.01053659 -0.028216228 -0.05994121
0002a0 05 36 0a bb 5a 5e 45 bc 17 82 25 bd ee 5b 1c bc
       -0.0021089327 -0.012046421 -0.040407266 -0.009543402
0002b0 11 01 4b bd 96 5d 74 bc f5 dd 9b 3b 3b 5f 0c 3c
       -0.049561564 -0.014914891 0.004756684 0.008567627
0002c0 a5 a4 90 bb f5 06 a4 3a c8 1f db bd 58 7c f4 bc
       -0.0044141584 0.001251428 -0.10699421 -0.029844448
0002d0 9c 08 a5 bb b4 4d 15 3c f7 cb d0 3a 50 fa 95 3c
       -0.0050364267 0.009112764 0.0015929927 0.018307835
0002e0 5f b1 4d 3b 99 3b 9f 3c 83 71 ed 39 e6 f1 89 bb
       0.003138624 0.019437598 0.00045288735 -0.0042097447
0002f0 aa 53 f5 bc 77 11 27 3c 8e 83 c1 3d 27 c7 e4 3c
       -0.02994712 0.010197035 0.0944892 0.027926994
000300 02 d8 42 3c 0f cb 81 3d 36 ba b2 3c 4e 06 ce 3b
       0.011892321 0.063375585 0.021817308 0.0062873727
000310 04 c0 01 3b 58 2c 60 3c ad 13 52 3b cb b5 c3 3c
       0.0019798288 0.013682447 0.0032055185 0.023890397
000320 91 29 fd 3b 28 ff 9a bb 1e 80 90 bc 14 2b e9 b9
       0.0077259024 -0.004730124 -0.017639216 -0.0004447332
000330 31 21 a1 3b 46 d1 b7 3b 28 4e e6 3a 3c 5f a5 ba
       0.004917287 0.005609664 0.00175709 -0.0012616883
000340 63 5e c1 3c 0a 77 46 bc 06 bb 45 bb 97 6c 48 bd
       0.023604577 -0.012113342 -0.003017129 -0.048931684
000350 6b 6d 3f bb 44 40 12 3d 2f 9c f4 3c 51 91 c9 3b
       -0.0029209505 0.03570582 0.02985963 0.0061513563
000360 28 46 59 3d 7e 1e e3 bc f8 15 db 3a 46 ba b4 ba
       0.05304542 -0.0277245 0.0016714921 -0.0013788424
000370 d3 0e df bc 53 8a ab ba a6 e8 99 bd e7 a4 82 3b
       -0.027228748 -0.0013087488 -0.07515077 0.003986943
000380 6a 41 06 3d 01 81 20 3a 9b a6 1d 3c 92 4d 05 be
       0.032777227 0.00061227387 0.009622241 -0.13017872
000390 cb c5 24 bb 7d 33 ca bc b0 d3 d9 bd 27 6e dd 3b
       -0.0025142308 -0.024682755 -0.10636079 0.006757516
0003a0 9d 16 a1 3d 45 bc ad bb 87 7c 97 3d 22 fe 1e bd
       0.07865641 -0.0053019845 0.073967986 -0.03881658
0003b0 e7 9a c8 3d 3f 33 ba 3c b6 0d 59 3a 28 57 61 ba
       0.0979517 0.022729514 0.0008279936 -0.0008596056
0003c0 98 25 1d 3d b9 37 c4 bd ba 61 c2 bb 02 22 ec bc
       0.03836593 -0.09580941 -0.00593206 -0.02882481
0003d0 96 bf 1b bd 5d 54 88 bc 69 63 d3 b9 29 c9 88 3d
       -0.038024507 -0.01664179 -0.00040319122 0.06678993
0003e0 15 62 2c bc 3c f7 6e bb 12 6a 1b ba d9 b0 70 bb
       -0.010521431 -0.003646328 -0.00059285865 -0.0036726503
0003f0 ec c9 2a bd 3a 1f 59 3b 0a ab 9f 3b 29 7b 68 3d
       -0.041696474 0.0033130185 0.0048726844 0.05675808

network_body._body_endoder.seq_layers.0.bias f4 [128]
000000 14 f7 2a bd 69 f6 b9 bd 2b 8f bf bc 39 cc be 3b
       -0.04173954 -0.09080202 -0.023383697 0.005822685
000010 5a 4c 4e bc 7a 42 b3 3c f3 67 09 bc 77 1e 00 be
       -0.012591446 0.021882284 -0.0083866 -0.12511621
000020 b8 61 ed 3c ff 70 df 3c 45 2f df bd 7d 47 25 3c
       0.02897726 0.02727556 -0.10897688 0.010087845
000030 22 fa 5c bc c0 b8 b8 bd a2 54 19 bc fa 07 d4 bd
       -0.013487371 -0.09019613 -0.009358557 -0.10353084
000040 99 53 1b 3d c1 07 d4 bd 61 07 37 3d f1 04 fd 3c
       0.03792152 -0.103530414 0.04468477 0.030886145
000050 ad a4 58 3d ff e8 1e bd 38 c8 1e bd 80 1b d6 bd
       0.052891422 -0.03879642 -0.038765162 -0.10454464
000060 68 56 0b 3c 04 7f 51 bd e8 b5 b2 bd 11 12 68 bd
       0.008504488 -0.051146522 -0.08726102 -0.056657854
000070 bf 73 d6 bd 63 7e e1 bc 17 d9 ac bd 8c 56 67 bd
       -0.104712956 -0.027526086 -0.08439844 -0.056479022
000080 f3 8b c6 3c a4 58 8f 3d e2 c0 05 3c 0f ef 15 bd
       0.024236655 0.06999329 0.008163663 -0.036604937
000090 4f 20 69 3d 8c d9 77 bb 23 e2 52 bc 1f 7f d4 bd
       0.056915578 -0.0037818877 -0.012871298 -0.10375809
0000a0 59 f7 c3 bd ff e0 1f bd af 9f 11 be 61 d8 49 bc
       -0.09568662 -0.039032932 -0.1422107 -0.012319655
0000b0 6e 71 f0 bd 5c 6e 2a bd 8d f4 66 bd 1a dd 27 be
       -0.11740385 -0.041609153 -0.056385566 -0.16392937
0000c0 81 5c b6 bd ea b3 9e bc 98 c7 5b bd 64 3b b2 3d
       -0.089043625 -0.0193729 -0.053657144 0.08702734
0000d0 99 ba 97 bd 35 76 fb 3c 26 82 fc 3c 03 9a 01 3d
       -0.074086376 0.030696014 0.030823778 0.031641018
0000e0 82 80 53 3c 63 d0 9e 3b a6 81 a1 bd e4 64 05 bc
       0.012909057 0.004846619 -0.078860566 -0.00814173
0000f0 6b c6 17 bd e3 c7 86 bc cb 40 5c bc cf 5b 42 bb
       -0.03705446 -0.016452735 -0.013443182 -0.0029656773
000100 54 52 21 be 16 40 ea bd 75 ae 91 3c fe 9e 9a bd
       -0.15754062 -0.11438005 0.017783383 -0.075498566
000110 1d 9b 82 3c 4e 57 d5 3c 9a 70 a5 bd 41 dc 6f bd
       0.015943104 0.026042607 -0.08078118 -0.05855966
000120 62 05 b8 3d 78 47 7c bd ea c5 01 bd 1a 13 24 bd
       0.08985402 -0.061591595 -0.031682886 -0.04005728
000130 2e b6 8d 3d 99 2a fb bb 75 ba 09 3d 3a bf 7c bc
       0.06919514 -0.00766499 0.033625085 -0.015426451
000140 9f 42 58 bd f9 ec 4c bd 1c 73 19 bd 73 e7 3b bd
       -0.05279791 -0.050030682 -0.037463292 -0.045875024
000150 88 82 4e be 77 3d 2c 3d 73 0f 91 bd 12 88 1d bd
       -0.20166981 0.042050805 -0.07083025 -0.038459845
000160 8f f8 77 bd 6b 17 3d bc 45 98 d0 bd e4 29 b5 bd
       -0.06053978 -0.011541228 -0.10185293 -0.08845881
000170 75 c8 90 bd fd a2 a9 3d 6a 56 53 bb 7b bb 09 bd
       -0.07069484 0.08283041 -0.0032247552 -0.03362606
000180 9c ac 96 bd d0 d9 f7 bd 9b e2 57 bd 71 a7 47 bd
       -0.073571414 -0.12102091 -0.052706342 -0.04874367
000190 dd 21 8f bd 83 b6 b3 bc 8b 92 be bd 6f e3 39 3c
       -0.06988881 -0.021937614 -0.093052946 0.011345728
0001a0 06 3d 09 bc ef 03 fd bc f5 62 b2 bd 89 e7 3b bd
       -0.0083763655 -0.030885665 -0.08710281 -0.045875106
0001b0 33 fe 1e be 3a 93 84 bd 9e 00 18 bd 17 d5 b4 3c
       -0.15526657 -0.06473394 -0.037109964 0.022074265
0001c0 90 2e 43 bd 68 da 0b be e7 0d bc bd 61 83 d5 ba
       -0.047651827 -0.13657534 -0.09182339 -0.0016289764
0001d0 24 90 55 3d f5 e4 1b ba 78 e4 bb bd d8 79 4b bd
       0.052139416 -0.0005946898 -0.09174436 -0.049676746
0001e0 85 8c 8d bd 42 67 a9 bd f5 65 b6 bc cd ec 28 bd
       -0.069115676 -0.08271648 -0.022265414 -0.041241456
0001f0 a7 47 08 3d ca 19 08 3d 75 89 98 bd f8 8a 6b 3d
       0.033271458 0.03322772 -0.07448093 0.057505578

network_body._body_endoder.seq_layers.0.weight f4 [128, 12]
000000 52 8f 38 3c f5 6f ad bd c9 de 36 3d 39 96 ed bc
       0.011264639 -0.0846862 0.04464606 -0.029002296
000010 94 97 7f be 33 12 28 be cc 86 87 3e fc 90 1e bf
       -0.24960166 -0.16413192 0.2647003 -0.6193998
000020 7f 4e 59 3f 3d 8f 09 3f 6d bb 81 3e 27 4f f8 3e
       0.848854 0.5373419 0.25338307 0.48497888
000030 16 68 fd bd 37 5c 86 3e 25 24 dd bc bf 2a bf 3e
       -0.123733684 0.2624223 -0.026994774 0.373373
000040 e9 2b 94 3e d8 33 82 3e 70 0b b8 3d 6d 08 d5 be
       0.2893975 0.2543018 0.089865565 -0.4160799
000050 5b f0 0d 3e 29 94 1d 3f cd a8 8c be d9 1d 47 bd
       0.1386122 0.615542 -0.27472535 -0.04861245
000060 2e 53 8b bd c0 e5 79 3e 97 25 22 3d 71 c2 bd 3e
       -0.06802975 0.24404049 0.03958663 0.3706241
000070 71 d8 2c be 89 9e 0c 3d b9 ac 7a bf d0 00 d0 be
       -0.16879441 0.03433088 -0.97919804 -0.4062562
000080 5d 7a 25 3e af cb 74 bd c7 dc 81 bb d6 cd ea bd
       0.16159959 -0.05976456 -0.0039630863 -0.11465041
000090 a0 98 02 3f 8e 11 b1 3d e5 4f 2f be f4 55 80 3b
       0.5101414 0.086459264 -0.17120321 0.0039164964
0000a0 23 a1 64 3e e7 ae 9d 3d 40 e1 5b be c9 74 46 bd
       0.22327094 0.076993756 -0.21472645 -0.04845122
0000b0 98 be 21 be 14 31 9b 3d 8a 4c 74 be 8b 52 8f 3d
       -0.15795362 0.0757772 -0.23857322 0.06998166
0000c0 24 46 05 3f 4f df 34 bf c7 d3 7c bd 30 e4 38 bd
       0.5206015 -0.7065324 -0.061725404 -0.04513949
0000d0 77 7e e8 be 5d 53 6f be cb 74 81 be ec 61 96 3d
       -0.45408985 -0.23371644 -0.25284418 0.07342896
0000e0 c4 db b6 3e 1f 5d 1c 3e 0b ca 94 3d 69 c5 e0 bd
       0.35714543 0.15269898 0.07265099 -0.10975153
0000f0 5b fc 4d be 30 e7 9c be b4 0c 32 3f 6d b4 7c be
       -0.20115797 -0.30645132 0.69550633 -0.24678202
000100 73 e4 52 bd d8 b7 b9 be 1b a6 57 3e 0a 3b 09 3f
       -0.051487397 -0.36273074 0.21059458 0.5360571
000110 ef a3 a5 3e 01 52 9f 3e 30 da 19 3e 9f 6f 83 3e
       0.32351634 0.31117252 0.15024638 0.25671098
000120 31 8f f9 be da d9 eb 3d 56 01 aa be 6c 4f 94 3e
       -0.4874206 0.11516161 -0.33204144 0.28966844
000130 12 a2 95 3d 91 0d 89 be 6a a3 9f 3e e6 49 11 3e
       0.07306303 -0.26768163 0.31179363 0.14188346
000140 fb 86 c8 3d 04 5c 85 be a0 99 d2 bd b5 1a 31 3a
       0.097913705 -0.26046765 -0.10283208 0.0006755994
000150 89 bc 0c be c2 d6 49 be d3 bf eb be 40 8d 88 3a
       -0.13743795 -0.1971083 -0.46044788 0.0010418072
000160 1c a5 2b be 6b da d7 bd f2 a2 04 3c 10 2e d1 3e
       -0.16762203 -0.10539707 0.00809549 0.40855455
000170 bc bc e7 3e f0 cc de be 9a d5 f4 be 36 4a 9d 3e
       0.4526118 -0.4351573 -0.47819215 0.3072068
000180 56 71 1b bf e6 eb 07 3e 22 f5 f4 3e 87 cf f3 3e
       -0.6071981 0.13273582 0.47843271 0.47619268
000190 b9 b7 b4 bd 06 82 03 3e 9d 1e e1 be 8d d6 11 be
       -0.08824105 0.12842569 -0.4396867 -0.14242001
0001a0 3b 64 37 3e dc 96 9a 3e b7 28 ad be 73 20 7d bd
       0.17909329 0.30193222 -0.33820125 -0.061798524
0001b0 70 cb 44 3e 9d 12 2c bc 73 74 97 3c 26 f1 d6 bd
       0.1921823 -0.010502485 0.018488145 -0.10495214
0001c0 b5 28 85 3d 70 80 8b 3e fb 04 f2 be 6a c1 9a 3f
       0.06501905 0.27246428 -0.47269425 1.2090275
0001d0 07 55 a7 3d c9 a6 9d 3d 59 41 27 be 29 d6 0d bf
       0.081705146 0.07697827 -0.16333522 -0.5540491
0001e0 46 02 8d bd 7a cd cf bd 68 c1 28 be 8f 91 76 3e
       -0.06885199 -0.101466134 -0.16480029 0.24078964
0001f0 42 11 1c ba 01 e9 3d 3e 58 b6 30 be 24 11 83 be
       -0.00059534993 0.18545915 -0.17257059 -0.25599015
000200 16 d9 2a be f0 97 7a 3e 17 f9 32 3e 04 ee 97 bb
       -0.16684374 0.24472022 0.17477833 -0.004636528
000210 2b 51 d9 3e 96 d2 bb 3d 36 02 28 be ad d5 80 be
       0.4244474 0.091710255 -0.16407093 -0.25163022
000220 90 cf 19 3e cb 70 ef 3d 1b 2c 88 be 4d aa 90 3e
       0.15020585 0.116914354 -0.2659615 0.2825493
000230 12 7b c3 be 6d f5 b8 bd f7 fa 48 3e 9d d5 bb be
       -0.38179833 -0.09031186 0.19626985 -0.36686411
000240 3e 8c 98 3e 5f e6 9e 3e d4 83 81 3e 03 cc b6 bd
       0.29794496 0.31035134 0.2529589 -0.08925631
000250 b9 7e 9e 3d 3c fc b5 3c e6 98 4a 3e 82 f3 36 3c
       0.07739014 0.022215001 0.19784889 0.011166455
000260 a7 91 20 bf c7 72 11 be 2d 06 55 be 48 af 58 be
       -0.6272225 -0.1420394 -0.20803137 -0.21160614
000270 aa 02 67 3d cc bd 89 be 65 60 31 bc c4 3b e5 be
       0.056399025 -0.26902616 -0.010826205 -0.4477216
000280 d0 5e 59 be b0 c0 d6 3e 1f fc 96 be 0b cf 74 3e
       -0.21227574 0.41943884 -0.29489228 0.23907106
000290 0a 6c a8 3e cb ee 24 bf e6 ad b6 be ae c2 92 3e
       0.32894927 -0.6442687 -0.3567955 0.28664154
0002a0 e6 9e 26 3f 49 38 29 3e 05 02 08 bf 7d 85 54 3c
       0.6508621 0.16525377 -0.5312808 0.012971279
0002b0 4a 71 45 3e bb 11 9d bd ae f1 44 bd e8 68 86 bd
       0.19281498 -0.076693974 -0.048082046 -0.06562978
0002c0 09 42 2c 3f 8c 3d 2b 3e e1 2b a8 bd cc dd 1f 3d
       0.6728826 0.16722697 -0.08211494 0.03902988
0002d0 06 09 9f 3d c6 95 a2 3e 54 2d cc be e6 06 a5 3e
       0.07765393 0.31754893 -0.39878333 0.32231826
0002e0 41 5d 89 bb 76 0b c6 bc 0a ac d5 3e 4c 60 ba 3b
       -0.004192025 -0.024175387 0.41732818 0.005687749
0002f0 90 5f 0a 3e a6 c9 9f 3d 9a c6 f5 3e 5f 66 2c bd
       0.13513017 0.07802133 0.48003083 -0.042089816
000300 da 4e 38 3f 2b 68 f6 be 07 ca 46 be eb 62 be be
       0.7199532 -0.4812635 -0.19413005 -0.37184843
000310 8c 4c 2f 3e 2b 08 2d 3e f8 05 1e bf 44 26 6f bc
       0.17119044 0.16897647 -0.6172786 -0.014596526
000320 c4 60 81 3e 9e b0 ae be e3 f5 64 be bb 4e 85 3e
       0.2526914 -0.34119123 -0.22359423 0.2603663
000330 b5 42 6b be 25 9f d0 be 6a 2f 91 3e 51 d5 b2 3d
       -0.22974665 -0.40746418 0.28356487 0.08732093
000340 76 ac 9f be b6 70 80 3e f9 b8 ae be 12 a8 52 bc
       -0.31186265 0.25085992 -0.34125498 -0.012857454
000350 5b b5 03 3f d8 8d 00 bf ac ae 1a bf e2 07 40 3d
       0.514486 -0.50216436 -0.6042278 0.046882518
000360 ab a6 6c be 8e ff f5 3e 53 00 81 3d df b8 bc 3e
       -0.23110454 0.48046535 0.0629889 0.36859795
000370 19 e2 cf bd fc 8e 24 3e 17 13 31 be e6 6c a5 3d
       -0.101505466 0.16070169 -0.17292438 0.08077411
000380 2d 1c de be b0 00 e5 3e f5 1d 16 3c f4 e2 c0 3e
       -0.4338087 0.44727087 0.009162416 0.37673151
000390 30 fb 89 3d 69 32 cd 3e 2f 34 ec 3e 25 d4 8e be
       0.06737363 0.40077522 0.46133563 -0.27896228
0003a0 15 71 1b be df 15 15 be 7d c4 c5 bd 71 f8 7d bd
       -0.15179856 -0.14559124 -0.09656618 -0.06200451
0003b0 36 c0 14 3f 38 ce 90 3e 8a 92 27 be 5a 0a cd 3e
       0.5810579 0.28282332 -0.16364494 0.4004696
0003c0 a1 db 3f bd 60 1f cc bd 87 33 a8 3e 69 cd 2a bf
       -0.046840314 -0.09966922 0.32851812 -0.6671968
0003d0 9a 60 5f 3e 1d e2 9e be 3e 53 27 3f 0f 19 e8 3e
       0.21814194 -0.31031886 0.6536139 0.45331618
0003e0 c5 59 58 3e 85 8b 03 bf a4 a5 ed 3e 6f 02 fd be
       0.21127994 -0.51384765 0.46415436 -0.4941592
0003f0 cf 74 a6 bd 3b 2e 5f bd 7a b7 8d bd 86 76 c8 3c
       -0.08127748 -0.05448745 -0.06919761 0.024470579

network_body._body_endoder.seq_layers.2.bias f4 [128]
000000 16 f8 cd bc ef cb 85 3d eb f9 91 bc cb 03 94 bc
       -0.02514271 0.06533038 -0.017819365 -0.018068215
000010 21 4f c1 3b e3 20 95 3c 7a 8c e7 3c 17 9c aa bd
       0.0058993255 0.018204158 0.028265227 -0.08330553
000020 aa 0a a4 bd 2d 27 15 bd 25 8a 33 bd 8d d5 1c 3b
       -0.080098465 -0.036414314 -0.043832917 0.0023930997
000030 44 44 81 3d 6b a3 83 bd 2e 5b c8 bc 29 7e 50 bc
       0.06311849 -0.06427654 -0.02445754 -0.012725391
000040 bf da b3 bd 73 7a 40 bb 76 52 dc bc 2a 47 b8 bc
       -0.08781957 -0.002936986 -0.02689479 -0.022494871
000050 83 4a 2d 3d 36 75 5d 3d cd c0 0a 3c 61 86 a3 3c
       0.042307388 0.05406686 0.008468819 0.019961538
000060 65 07 0d 3c 69 51 fd 3c 3e 8f 22 bd 9a 0c 21 bd
       0.00860772 0.030922608 -0.039687388 -0.03931866
000070 53 2a 25 bc d3 70 39 3d b8 e9 74 bb 6a 02 12 bd
       -0.010080892 0.045273613 -0.0037370753 -0.035646833
000080 f1 a8 b1 bd 87 54 a8 bd 96 83 c7 bc 10 21 62 3d
       -0.08674801 -0.08219247 -0.024354737 0.055207312
000090 d1 fe 90 3c 80 f4 cf b9 6b 49 b6 bb 6e 69 a5 3c
       0.01769963 -0.00039664283 -0.0055629513 0.020191874
0000a0 0b 46 a1 bd 57 a0 84 bd 79 18 32 bd 05 53 93 bc
       -0.07874688 -0.06475895 -0.04348037 -0.017983923
0000b0 ea 65 65 bc 50 91 02 bd 4e 9c 47 bc d3 13 5e bd
       -0.014001349 -0.031876862 -0.012183262 -0.054218125
0000c0 4c 64 57 bd a6 30 d2 bc 64 2a 22 3d 34 59 6b 3b
       -0.052585885 -0.025657963 0.039591208 0.0035911324
0000d0 bf cc 9b 3b 9e 98 85 bc 1e f6 96 bc 40 2d f2 bc
       0.0047546322 -0.016308125 -0.018427905 -0.029562593
0000e0 c5 00 67 3c b7 aa 92 bc 58 e4 ac bc a4 1d 01 bc
       0.014099305 -0.017903669 -0.021104977 -0.007880602
0000f0 88 f0 39 3b e4 71 62 bc 23 66 ed 3c cd b9 06 3d
       0.0028372128 -0.013821099 0.028979367 0.032892037
000100 ec d8 8e 3c 2c 59 6f 3d 31 68 fe 3c 31 f8 9b 3c
       0.01743742 0.05843465 0.031055542 0.019039245
000110 d2 0f 87 bd 93 97 1f 3d 4f 05 05 be c2 b5 e0 bc
       -0.06594814 0.03896291 -0.12990306 -0.027430419
000120 4e 8b 32 bd f7 12 01 3c 61 38 b9 3c f0 c4 d7 bc
       -0.043589883 0.007878057 0.022609891 -0.026339024
000130 e3 e6 52 bc ef 93 17 3d ef 98 c7 ba d5 2f 57 bd
       -0.0128724305 0.037006315 -0.0015228073 -0.05253585
000140 7f 9f 14 bd 03 c5 8b bd d5 35 61 bd 7a ee 68 b9
       -0.03628492 -0.068246864 -0.05498298 -0.00022214084
000150 05 73 cb 3c f7 df a1 3c c0 55 40 bb 09 e0 0e bd
       0.024835119 0.019760115 -0.0029347986 -0.034881625
000160 03 15 da bb a9 d7 96 bd 3b 41 21 bd dd 3f d7 bd
       -0.006655337 -0.07365353 -0.03936885 -0.10510228
000170 82 8b 6c bc 40 47 da bc d6 31 1f 3d 1f c3 e0 bd
       -0.014437558 -0.026645303 0.038865887 -0.109747164
000180 e4 bf e0 bb c4 9b 99 3b c5 6b 4d bd 3b 7a 22 3d
       -0.0068588126 0.004687758 -0.050151605 0.03966735
000190 b5 22 25 bd d8 ac 2d bd 9b 69 58 3d 65 33 39 bc
       -0.040316302 -0.042401165 0.05283509 -0.011303757
0001a0 0f 24 22 3d 4c 1b ef 3c aa a5 e0 3c 6b 50 88 bb
       0.03958517 0.02918782 0.027422745 -0.004159977
0001b0 fc 03 e8 3c 6b e2 a7 3c 41 e1 07 3d a1 16 8e bb
       0.028322212 0.020493707 0.033173803 -0.0043361937
0001c0 93 b1 e9 bb ab 4b f1 3b 19 44 d1 bc b9 59 c3 bb
       -0.007131764 0.0073637567 -0.025545167 -0.0059616235
0001d0 e4 8b ba bc e6 29 9c bc 53 d9 db bd 26 e3 f8 3c
       -0.022771783 -0.019062947 -0.10734811 0.03038175
0001e0 e3 3c e1 bc 5d 9e d3 bd 1f 98 93 bd e1 3e a2 bc
       -0.027494853 -0.1033294 -0.07206749 -0.019805374
0001f0 f7 0b ed 3c 4d c4 03 be 2f cc 3c bd fc 8c ca bb
       0.02893637 -0.12867852 -0.046093162 -0.0061813574

network_body._body_endoder.seq_layers.2.weight f4 [128, 128]
000000 b2 74 f4 3d e8 5f 13 3e bb 2f 58 be f3 1b 52 be
       0.1193632 0.14392054 -0.21111958 -0.20518474
000010 22 c8 dc bc 21 10 21 bd 70 75 30 bd ea f0 18 be
       -0.0269509 -0.039322022 -0.043080747 -0.14935651
000020 38 9b f9 bd e9 57 bc 3d b1 91 04 bc db b6 99 bd
       -0.12187809 0.09196455 -0.008091376 -0.0750558
000030 c0 79 34 be 8c c9 c0 3d cc d9 a9 3c 4f 67 48 3d
       -0.17624569 0.09413442 0.020733736 0.048926648
000040 61 45 3f be 0a 6c 67 3d 53 6d 12 bd 16 4d db bc
       -0.1867881 0.05649952 -0.03574879 -0.026770156
000050 1c dc 0c be b4 e0 e2 bc 2c 6f 56 be 6e 39 ea 3c
       -0.1375584 -0.027695037 -0.20940846 0.028591838
000060 58 7d 4c 3d 67 91 98 bc 48 e9 c3 bd 9f 73 08 3c
       0.049924225 -0.01862402 -0.09565979 0.0083283475
000070 68 df ad bc f0 7b c2 bd 1a c5 39 be b5 93 57 bd
       -0.021224692 -0.094962955 -0.18141595 -0.0526311
000080 d0 d7 3a 3e 93 4d 5b bd 2b a7 68 be f6 01 3c bc
       0.18246388 -0.053540777 -0.2272002 -0.011475077
000090 da ca 50 3d 26 ca df 3c e3 26 58 3c b3 0a 90 3c
       0.050974704 0.027318072 0.013192865 0.017583227
0000a0 3f e1 37 bd ad 69 65 bd 0e af 1d bd 2f 07 aa 3d
       -0.044892546 -0.056008983 -0.038497023 0.083021514
0000b0 3b af 5f bd 48 f8 f5 bc ad a9 34 3d b9 58 63 bd
       -0.054610472 -0.030025616 0.044107128 -0.055504534
0000c0 94 9a c1 3b 0d 5a ad 3d 18 b4 35 3d 0c 54 9f be
       0.0059083197 0.084644414 0.044361204 -0.3111881
0000d0 56 29 a4 3d cf 79 95 bc 9b f6 8d bc 9a 51 9a bd
       0.08015697 -0.01824656 -0.017329505 -0.075350955
0000e0 a1 ff 16 bd db c8 f6 bd bc 0e be 3d d6 7c b9 bd
       -0.03686488 -0.12050029 0.09280154 -0.09057014
0000f0 26 38 40 bc 2d 22 8f 3d f2 a2 48 bd fd 41 63 3d
       -0.011732137 0.069889404 -0.04898352 0.055482853
000100 99 e6 06 3e b1 8b 14 3d f5 bc 1a bc 82 81 a0 bd
       0.13173904 0.036266033 -0.009444465 -0.07837202
000110 47 a1 8b bd fd 60 13 3d 6d 30 56 bd 6e 80 e9 3d
       -0.068178706 0.035981167 -0.052292276 0.11401449
000120 f8 c7 72 be 2b 7a 1e bb 2f 59 20 be 67 1c 39 3b
       -0.23709095 -0.0024181705 -0.15659021 0.002824569
000130 cc 35 7b bd ff 9a 90 bd c6 47 d9 bd 5f 59 04 be
       -0.0613306 -0.07060813 -0.10609393 -0.12924717
000140 04 df ec 3d 72 b3 86 bd 66 27 16 be 12 e5 02 3e
       0.11565974 -0.06577195 -0.14663467 0.12782696
000150 3d a1 38 3e 13 03 8c 3d 09 41 76 be 8d 06 2d be
       0.18030258 0.06836524 -0.24048246 -0.1689703
000160 bd fb e5 3d 81 12 33 be 73 9a c4 bd 86 3f a6 3d
       0.11229656 -0.17487527 -0.09599771 0.08117585
000170 8b cd ce bd c6 52 44 be 70 e1 e1 bd 1d 06 ea 3d
       -0.10097798 -0.191722 -0.11029327 0.11426947
000180 04 8e 05 3e c2 ca 6f bc b6 c3 0d bc c3 2d 7c bd
       0.13042456 -0.014635744 -0.008652618 -0.06156708
000190 4d 54 c6 3d 4e ec 1a bd 54 73 18 be 38 16 fe 3c
       0.09684048 -0.037823014 -0.14887744 0.031016454
0001a0 99 13 0e 3e 8e 2c 2a 3d f7 af 4c bd 64 ad 93 bc
       0.13874663 0.041546397 -0.0499725 -0.018027015
0001b0 88 d8 89 bd e2 4a 7b 3b 91 6c bd 3d e2 c8 26 be
       -0.06730753 0.0038344194 0.09249223 -0.16287568
0001c0 b8 fb 35 bd a1 1e eb bd 66 89 ee 3d 3f c6 c5 3d
       -0.04442951 -0.114804514 0.116473004 0.09656953
0001d0 f2 6b 03 be d9 9c 50 3e 35 c6 cb 3b a7 5c 41 3c
       -0.12834147 0.20372333 0.0062186965 0.011801875
0001e0 a7 d6 83 3c e5 77 70 bd 51 6c 22 bd 0b 52 94 3c
       0.016093565 -0.05870809 -0.03965408 0.018105527
0001f0 7a d6 3b be 96 4c 38 be 51 5b b0 3d 67 f7 6b 3c
       -0.18343535 -0.17997965 0.08611167 0.014402247
000200 4d 9d 5a bd c7 f2 b4 bd f8 6a 29 be 90 1d 32 be
       -0.05337267 -0.088353686 -0.16544712 -0.1739409
000210 64 5c 2c 3d df d8 9a 3d c6 fd 55 3d 77 8d ab bd
       0.042080298 0.07560896 0.05224397 -0.08376592
000220 26 95 ce 3d bc 21 c1 3d b3 fa d1 bb 5b d1 66 bc
       0.100870416 0.094302624 -0.0064080595 -0.014088
000230 49 07 09 be 52 a1 e0 bc 2c ef 43 bd f5 26 c1 3c
       -0.13381685 -0.027420674 -0.047835514 0.023578146
000240 b4 a0 1d be ed 0d f7 3b 94 09 e9 3d 65 5d 35 bd
       -0.15393335 0.007539502 0.1137878 -0.04427852
000250 fb dd b6 bd f1 1f 0b 3e a9 98 ee 3d e3 b5 d7 bd
       -0.08929058 0.13586403 0.11650211 -0.10532739
000260 16 75 f6 bd b3 37 08 3d 59 53 3b be 4f 87 4e 3d
       -0.12034051 0.033256244 -0.18293513 0.05042201
000270 0f 8e 53 3d ba bb 59 bc da 1a 4c bd ea 29 ae 3d
       0.05164915 -0.013289386 -0.049830295 0.08504088
000280 6c fa 0f bc 23 1b b7 bd bf 7f 8c 3d 10 1f c1 bd
       -0.008787733 -0.08940723 0.06860303 -0.09429753
000290 5c e3 87 bd ed 54 9d 3d e8 17 d5 bd 3f 90 07 be
       -0.06635162 0.07682214 -0.104049504 -0.1323862
0002a0 86 4c 27 bd 47 11 00 be 65 5c bd 3b 29 05 97 bd
       -0.040844463 -0.12506591 0.0057788366 -0.07374031
0002b0 c5 d6 ac 39 5a 01 b2 bd d8 8e 77 bd aa 23 ff 3d
       0.00032966412 -0.08691664 -0.06043896 0.12457974
0002c0 dc 64 1e 3d 84 e5 0a 3d 15 04 54 bd 47 28 c5 be
       0.038670406 0.03391029 -0.051761705 -0.38507292
0002d0 ba c1 05 3e 6e 4c a8 bd 72 e4 4b 3e 93 60 84 bd
       0.13062182 -0.08217703 0.19911364 -0.064637326
0002e0 8a 18 24 be f3 e3 9a 3c b9 1a 04 bd 4e e3 87 3d
       -0.16024986 0.018907523 -0.032252047 0.06635152
0002f0 ed d7 77 bd e1 c9 84 3b ce e3 40 bc f5 88 f8 bc
       -0.060508657 0.004052386 -0.011773063 -0.030338744
000300 8d 6c 4f be bf 69 19 be 0e 11 95 bb db a2 d5 bd
       -0.20256253 -0.14981745 -0.004549152 -0.10431453
000310 22 cd cf 3d a4 74 2e 3c 88 d8 e0 3c b4 10 00 be
       0.10146548 0.0106479265 0.027447 -0.12506372
000320 fe 3a 78 be d9 c7 2d 3d df 16 7c bd 37 51 84 3c
       -0.24241254 0.042426918 -0.06154525 0.016152008
000330 c1 56 49 be 0a d6 02 3d 85 b1 01 3e b0 6b aa 3c
       -0.19662 0.031942405 0.12665375 0.020803303
000340 81 1c 70 be 18 f9 8a be 8e 07 ba bb 04 90 83 3e
       -0.23448373 -0.27143168 -0.00567717 0.25695813
000350 80 18 c5 3b f4 c2 9b bd ab c3 35 be 9f dd 11 be
       0.0060148835 -0.07605544 -0.17750423 -0.14244698
000360 20 32 c0 bd 90 4d 4f bd a4 82 78 3d 0c 2a a0 bd
       -0.093845606 -0.05061108 0.060671464 -0.0782052
000370 74 ea 45 3d 92 2d 00 3d 8e f9 dd 3d c9 d3 a6 3d
       0.048319295 0.03129346 0.108386144 0.081458636
000380 31 27 c4 3c b2 6f 43 be 81 6b 07 3e 9d df 06 3e
       0.02394447 -0.19085577 0.13224603 0.13171239
000390 8c f1 f1 3b 2a 2e 13 be 64 0e 5f 3d 29 c2 2d 3c
       0.007383531 -0.14373079 0.054457083 0.010605373
0003a0 30 95 7a 3d 02 f1 b3 3d 84 7d a3 bd 3e f1 1f bd
       0.061177433 0.08786203 -0.079829246 -0.039048426
0003b0 f8 fd 88 3d e0 65 b7 bd 8c cf 42 be d3 f4 39 ba
       0.06689066 -0.08954978 -0.19024485 -0.00070936716
0003c0 bf 4d 0c bd d6 67 67 3d 3d 0f 4b 3d a9 40 3c be
       -0.034253832 0.05649551 0.04957508 -0.18384041
0003d0 92 26 c5 be c9 ca 70 3e 2c 33 87 bd b2 67 46 3e
       -0.3850599 0.23514856 -0.06601557 0.19375494
0003e0 6a 5c ca be 1f b5 99 3d 29 62 00 bd ec 38 f3 bc
       -0.3952363 0.07505249 -0.031343613 -0.029690228
0003f0 d8 7b a5 be 49 44 53 be fc 6d 44 3e 99 25 22 3e
       -0.32321048 -0.20631517 0.1918258 0.15834655

network_body.observation_encoder.processors.0.normalizer.running_mean f4 [12]
000000 a8 7d 29 ba 77 36 a6 b9 04 02 17 40 04 02 17 40
       -0.00064655626 -0.00031702567 2.359498 2.359498
000010 04 02 17 40 26 bd cc 3f ce 10 11 bd 76 27 48 40
       2.359498 1.5995224 -0.035416417 3.1274085
000020 b4 60 11 3d 10 8e 73 3b c1 5d 46 bf d1 68 90 bb
       0.035492614 0.0037163533 -0.7748681 -0.0044070263
