Projects/AGP_Example3_MLBalancingBall/Assets/CuteAgentWrongVectorNumberOnly8.onnx (onnx, 73994 bytes, 9 tensors)

50 f4 [8]
0	0x3d421d70	0.047391355
1	0x3c961a16	0.018322986
2	0x3f7dffe9	0.9921861
3	0x3f7dffe9	0.9921861
4	0x3f7dffe9	0.9921861
5	0x3f4d967b	0.8030774
6	0x3f627aa3	0.8846838
7	0x3f5ff58d	0.87484056

action_model._continuous_distribution.log_sigma f4 [1, 2]
0	0xbfab2f6e	-1.3373849
1	0xbfb5a473	-1.4190811

action_model._continuous_distribution.mu.bias f4 [2]
0	0x3bfd1a69	0.0077240956
1	0xbaab3d4f	-0.0013064536

action_model._continuous_distribution.mu.weight f4 [2, 128]
0	0xbce71750	-0.028209358
1	0xbaf23b63	-0.0018480833
2	0xbad50594	-0.0016252273
3	0xbbdcba97	-0.0067361104
4	0xbd74f20b	-0.059801143
5	0xbcaa1602	-0.020762447
6	0xbe3dafad	-0.18524046
7	0x3dd6c6c8	0.10487133
8	0x3db2c42d	0.08728824
9	0xba27a70a	-0.0006395435
10	0xbc8b2741	-0.016986491
11	0xbc56d912	-0.013113277
12	0xba8c4f86	-0.0010704852
13	0x3c14e27a	0.009087199
14	0xbd7ba90d	-0.061440516
15	0xbc3a2a6d	-0.011362654
16	0xba0f6ff7	-0.0005471701
17	0xbc27aa1a	-0.0102334265
18	0xbb3f7833	-0.0029215931
19	0x3addfbbe	0.0016935987
20	0xb953d0fc	-0.00020200381
21	0x3d3ac60b	0.045599025
22	0x3936cc74	0.00017433037
23	0xbccfd83d	-0.025371665
24	0xbcaf80a9	-0.021423655
25	0x3af9edc7	0.0019068056
26	0x3ac32f61	0.0014891439
27	0x3bf0365f	0.0073307003
28	0x3a98eb82	0.0011666866
29	0x3c52fcea	0.012877682
30	0x3d1c8589	0.038213287
31	0xbc4089b0	-0.011751577
32	0x393a1002	0.00017744306
33	0xbc8cbfb3	-0.017181253
34	0x3b8f9549	0.00438181
35	0xbd653132	-0.05595512
36	0xbd68b996	-0.056817614
37	0xbd8c601d	-0.0685427
38	0x3d55ef2a	0.052230038
39	0xbaedffca	-0.0018157896
40	0xbb5480df	-0.0032425446
41	0x3c74f0df	0.014950006
42	0xbd50add3	-0.05094702
43	0x3d608923	0.054818284
44	0x3c2c15e6	0.010503268
45	0xbbd4a72c	-0.006489655
46	0xb96bb24e	-0.0002247777
47	0x3b2d4a5d	0.002644203
48	0xbb313076	-0.0027036942
49	0xbbf3b07b	-0.0074368096
50	0xbe7164f4	-0.23573667
51	0xbce610e6	-0.02808423
52	0x3af0dadc	0.0018375772
53	0x39800b01	0.0002442226
54	0x3ce97030	0.028495878
55	0x3aebef9a	0.0018000484
56	0x3acac6bd	0.0015470606
57	0xbdbe6332	-0.09296264
58	0xbdbf86ad	-0.09351859
59	0xbd960d09	-0.07326705
60	0xbc88c4d8	-0.016695425
61	0xba3ac546	-0.0007124733
62	0x3cb10e17	0.021613164
63	0xbe0cdc9e	-0.13756034
64	0xbd9d15fb	-0.07670208
65	0xbb002d38	-0.0019558202
66	0xbb6d50d5	-0.003621151
67	0xbb6fe724	-0.0036606276
68	0xba0225cf	-0.00049647404
69	0x3be9ae04	0.00713134
70	0x3d332f50	0.043746293
71	0xbde633cf	-0.112403505
72	0xbb19df9b	-0.0023479227
73	0xbd75a712	-0.059973784
74	0xbd7d8d76	-0.061902486
75	0x3e30176d	0.17196436
76	0x3b702a71	0.003664639
77	0x39834d87	0.0002504403
78	0x3e16f1cc	0.14740676
79	0xbdc2e20d	-0.09515772
80	0x3bdd68f7	0.0067568976
81	0xbb92097a	-0.004456696
82	0xbdd76940	-0.10518122
83	0xbda289d1	-0.07936443
84	0xbd1f0644	-0.038824335
85	0x3c2b47fe	0.010454176
86	0xbaa58f8b	-0.001263128
87	0x3ab0481c	0.0013449225
88	0xbda9a9f7	-0.08284371
89	0x3c270835	0.010194828
90	0x3d865d4c	0.06560764
91	0xba17b647	-0.00057873543
92	0x3d0200c7	0.031739023
93	0xbba5494d	-0.0050441385
94	0x3bafeca2	0.005368785
95	0xba6c4f16	-0.000901447
96	0x3b8230de	0.0039731106
97	0x3db52a44	0.08845952
98	0x3c693888	0.0142346695
99	0x3bbf5b03	0.005839707
100	0x3b12e7bb	0.0022415954
101	0xba558e60	-0.00081465207
102	0x3d125bf5	0.03573223
103	0xbdc500c1	-0.096192844
104	0xbb8aa40b	-0.004230981
105	0xbd896425	-0.06708554
106	0xbdb215f8	-0.086955965
107	0x3d84b770	0.064803004
108	0xb909d1ab	-0.00013143446
109	0x3d66dfc6	0.05636575
110	0x3de513c5	0.11185411
111	0x3bfe778b	0.0077657155
112	0x3b77cc2a	0.00378109
113	0xbda44c9e	-0.08022426
114	0x3c3385d2	0.010957198
115	0x3c7f33a1	0.015576274
116	0x3c0a0d0e	0.008425964
117	0x3e027d63	0.12743144
118	0xbb54a211	-0.0032445232
119	0xbe206851	-0.15664794
120	0xbe1aa584	-0.15102202
121	0xbd2db515	-0.04240902
122	0xbad3348f	-0.0016113686
123	0x3b530abd	0.0032202445
124	0x3a2b0780	0.000652425
125	0xbaa15350	-0.0012308154
126	0xbb2a270b	-0.0025963213
127	0xbb6afd2a	-0.0035856464
128	0xbdb9d539	-0.09073872
129	0xbc257a30	-0.010099933
130	0xbb9d438a	-0.004799311
131	0x3c19b816	0.009382268
132	0x3d766f8a	0.060164966
133	0xbdf3a42a	-0.11896546
134	0xbdcc5a55	-0.09978167
135	0x3cfd1fbf	0.030898927
136	0x3c7764d2	0.015099721
137	0x3b514198	0.0031929966
138	0xbd603df6	-0.05474659
139	0x3c3d8612	0.011567609
140	0x3af7fb5c	0.0018919515
141	0x3dfd3b70	0.123648524
142	0xbde0039e	-0.1093819
143	0x3e16b3b3	0.14716987
144	0xbd04843e	-0.03235268
145	0xbcf4183b	-0.02979671
146	0xbd998d89	-0.07497699
147	0xbb282c60	-0.0025661215
148	0x3ba5df9b	0.0050620562
149	0xbbcc5e0b	-0.0062367967
150	0xb892c6f4	-6.9988804e-05
151	0xbde13fe8	-0.10998517
152	0xbd5f035a	-0.054446556
153	0x3c0bec2b	0.008540194
154	0x3b1faaec	0.0024363352
155	0xba84382d	-0.0010087542
156	0x3a2ea116	0.0006661577
157	0x3dcafaef	0.09911143
158	0x3c8c4ef5	0.017127493
159	0xbcd2aa51	-0.025715979
160	0x3d9d0d29	0.07668526
161	0x3d1d5b87	0.038417365
162	0x3a1039f7	0.00055018015
163	0x3c205de1	0.0097880075
164	0xbdde273b	-0.10847326
165	0x3d2bfe4b	0.04199056
166	0xbd369a30	-0.04458064
167	0x3c22b759	0.009931409
168	0x39d13f9e	0.00039910985
169	0xbd82c407	-0.063850455
170	0x3c8b72c9	0.017022507
171	0xbd6ae3a6	-0.05734601
172	0xbdbf53d9	-0.093421645
173	0x3b7ade58	0.00382795
174	0x3ad5d9af	0.0016315485
175	0x3c83960c	0.016062759
176	0xbb5681e8	-0.0032731239
177	0xbbc1324a	-0.0058958875
178	0x3d222472	0.03958554
179	0x3b9152f2	0.0044349367
180	0x3c58ce56	0.013232788
181	0xbb937e1c	-0.0045011174
182	0x3da4f045	0.0805364
183	0xbb8a0753	-0.004212299
184	0xbaa52d43	-0.001260199
185	0xbd8244b9	-0.06360764
186	0xbc376dd2	-0.011195617
187	0x3d16acaf	0.036785778
188	0xbaff4a18	-0.0019477038
189	0x3bc6c3e5	0.006065833
190	0x3d225beb	0.03963844
191	0x3cfd5537	0.030924423
192	0x3c2e0c7e	0.010623096
193	0x3b2e3b0d	0.002658549
194	0x3bae1085	0.005312028
195	0x3bc21efe	0.0059241047
196	0x3c03048a	0.007996688
197	0x3bb9380e	0.005652434
198	0x3b35b660	0.0027727112
199	0xbd7f031e	-0.062258832
200	0x3bd85767	0.006602216
201	0xbc953f44	-0.018218644
202	0xbcd255da	-0.025675703
203	0xbd814d1f	-0.06313538
204	0xbdf97563	-0.12180593
205	0x3bc94348	0.0061420538
206	0xbc9c652f	-0.019091217
207	0x3ca0e432	0.019640062
208	0xbde266af	-0.110547416
209	0x3baf9a9b	0.0053590066
210	0x3cb20200	0.02172947
211	0x3dafd3e6	0.08585338
212	0xbc7f8e37	-0.0155978715
213	0xbd5ed829	-0.054405365
214	0xba1f66f8	-0.0006080712
215	0x3be54540	0.0069967806
216	0x3a959491	0.0011412074
217	0x3b903421	0.0044007455
218	0x3c27063d	0.010194358
219	0xbbaf440b	-0.0053486875
220	0x3c3c71f2	0.011501776
221	0xbaba9d2d	-0.0014237516
222	0x3b06365e	0.0020479183
223	0x3a6d2898	0.00090468815
224	0xba638d7e	-0.0008680447
225	0x3ca3bc07	0.01998712
226	0xbd98e459	-0.07465429
227	0xbb9eb95d	-0.0048438744
228	0xb931f3f8	-0.00016970921
229	0x3c10a474	0.008828271
230	0xbcada56b	-0.021197041
231	0x3d1265e7	0.035741713
232	0x3aa61dd2	0.0012673682
233	0xbb6f1336	-0.0036479956
234	0x39a585a0	0.0003157081
235	0xbc645c16	-0.013937971
236	0xbbc63809	-0.0060491604
237	0xbcb0a279	-0.021561848
238	0xbc803ac2	-0.015653018
239	0xbd3ddced	-0.04635327
240	0xbbee6d1e	-0.0072761914
241	0xbca7051f	-0.020388184
242	0xbc39b6b1	-0.011335061
243	0xbca3a710	-0.019977123
244	0x3b4efcb8	0.0031583738
245	0xbc0f5923	-0.008749279
246	0x3b0c7e2b	0.0021437507
247	0x3d5efe89	0.054441962
248	0xbd0b68a4	-0.03403534
249	0x3c0c4e5e	0.008563606
250	0xbd6cfd3a	-0.057858683
251	0xba4bbcf1	-0.000777199
252	0xbaa4a747	-0.001256206
253	0xba81fda5	-0.0009917511
254	0x3ac91423	0.0015341084
255	0x3b8bca59	0.004266065

network_body._body_endoder.seq_layers.0.bias f4 [128]
0	0xbe21fda0	-0.15819407
1	0x3cc150ff	0.023598192
2	0x3a7f863f	0.0009747482
3	0xbd32b3e2	-0.04362858
4	0xbddc3787	-0.107527785
5	0x3d087079	0.033310387
6	0xbcb1443a	-0.021638978
7	0xbd228c43	-0.039684545
8	0xbdad77bc	-0.08470103
9	0x3d59066f	0.05298465
10	0xbd48952b	-0.048970383
11	0x3ced6d24	0.028982706
12	0x3c92f0bc	0.017937057
13	0x3b8f8377	0.0043796855
14	0xbd59dfd6	-0.053191982
15	0xbd64444a	-0.055729188
16	0x3d1df539	0.03856394
17	0x3df8b4b0	0.121438384
18	0xbe07b53f	-0.13252734
19	0x3dbb2374	0.091376215
20	0x3caa99a7	0.02082522
21	0xbde5c3b3	-0.11218967
22	0x3dc4d9d4	0.0961186
23	0xbce0cb48	-0.027440682
24	0x3da5e88e	0.08100997
25	0xbd9b940c	-0.07596597
26	0xbd7869c6	-0.06064775
27	0xbdbc4dc3	-0.09194519
28	0xbd68c60e	-0.056829505
29	0x3c7f7cba	0.015593702
30	0xbe24c907	-0.16092311
31	0xbd848d72	-0.06472291
32	0xbc44387c	-0.011976358
33	0xbc280f42	-0.010257544
34	0xbe08ecaa	-0.1337153
35	0xbdf1b330	-0.118017554
36	0xbdadbc4c	-0.084831804
37	0xbde4e85a	-0.1117713
38	0xbd903abd	-0.070424534
39	0xbc30dc5c	-0.010794725
40	0xbe2dbb0a	-0.16965881
41	0xbc62532c	-0.013813775
42	0xbe132b4e	-0.14371988
43	0xbd08c8a6	-0.03339448
44	0xbd607dcc	-0.05480747
45	0x3dcfffc3	0.101562046
46	0xbcf2a9fc	-0.02962207
47	0xbdd32e99	-0.10311622
48	0xbd8cf3b2	-0.06882419
49	0xbc5decc2	-0.013545217
50	0x3d5efb2e	0.054438762
51	0xbc1f83cd	-0.009736014
52	0xbddcc7f2	-0.10780324
53	0x3d285c87	0.041103866
54	0x3d816889	0.063187666
55	0xbc5c925e	-0.013462631
56	0xbdef42d0	-0.11682665
57	0xbd78366d	-0.06059878
58	0xbda600e0	-0.08105636
59	0x3b4184b9	0.0029528572
60	0x3d1f7951	0.038934056
61	0x3cbadd7d	0.022810692
62	0xbcdcbf22	-0.026946608
63	0xbdd1a1ed	-0.10235963
64	0xbe0ce388	-0.13758671
65	0xbe365e26	-0.17809352
66	0xbd97e435	-0.07416574
67	0x3c2f6f2a	0.010707656
68	0xbe047c6b	-0.12938087
69	0xbd3cf2d0	-0.04613
70	0xbe1da7a5	-0.15395983
71	0xbdc6d9d3	-0.097095154
72	0xbe42c87f	-0.19021796
73	0xbc97adc9	-0.018515484
74	0xbd22cde0	-0.03974712
75	0xbd3a522d	-0.045488525
76	0xbc395bce	-0.011313392
77	0xbd71378d	-0.058890868
78	0xbd84041b	-0.064460956
79	0x3ce6d098	0.028175637
80	0xbd48506d	-0.048904825
81	0xbbdf9bf0	-0.006824009
82	0xbce35164	-0.027748771
83	0xbd84503c	-0.06460616
84	0xbd1f2843	-0.038856756
85	0xbd8bfbdb	-0.06835147
86	0xbd4da37b	-0.050204735
87	0xbda456e1	-0.08024383
88	0xb9adc9f2	-0.00033147592
89	0x3c5a0a9d	0.0133081945
90	0xbd8b758b	-0.06809529
91	0xbd8559ef	-0.06511294
92	0xbdbe2cc8	-0.09285885
93	0xbc74de9c	-0.014945652
94	0xbd953d7b	-0.07287117
95	0x3d8371d4	0.06418195
96	0x3c964376	0.018342715
97	0xbdd186be	-0.10230778
98	0x3c12cea8	0.0089604035
99	0xbd114d45	-0.03547408
100	0x3d8d7edd	0.06908963
101	0xbd4d4852	-0.0501178
102	0x3d9dd8a0	0.077073336
103	0xbe1a1663	-0.15047602
104	0xbb81863d	-0.00395277
105	0xbdcf2865	-0.101151265
106	0xbe0d92f5	-0.13825591
107	0xbe0029bc	-0.1251592
108	0xbdb21886	-0.08696084
109	0xbe4b9f09	-0.19884886
110	0xbdf2164f	-0.11820661
111	0xbd11ccac	-0.03559558
112	0xbd31b14a	-0.043381967
113	0xbd0e9fa6	-0.03482022
114	0xbd65a5c4	-0.05606629
115	0xbdfef1f3	-0.12448492
116	0xbd3f0e93	-0.04664476
117	0xbdae7f8b	-0.08520421
118	0xbded6263	-0.115910314
119	0xbd6ed0a5	-0.058304448
120	0xbe188732	-0.14895323
121	0x3d7937a2	0.06084407
122	0xbd564032	-0.052307315
123	0xbd0c0e01	-0.034193043
124	0xbc62b422	-0.013836892
125	0x3d958793	0.07301249
126	0xbda141a8	-0.07873851
127	0xbe058178	-0.1303767

network_body._body_endoder.seq_layers.0.weight f4 [128, 8]
0	0x3e85ba9a	0.26118928
1	0xbe450c2a	-0.19242921
2	0x3e3c43e5	0.18385275
3	0x3cfacdd2	0.03061572
4	0x3df73d19	0.120722
5	0xbf379f69	-0.71727616
6	0x3e4dcf17	0.2009853
7	0x3ee37e25	0.44432178
8	0xbe8c6d02	-0.27426916
9	0xbe8477c4	-0.25872624
10	0x3ced9e51	0.029006155
11	0xbec42aa0	-0.3831377
12	0x3ddbcc13	0.107322834
13	0x3dbab303	0.09116175
14	0x3eb90715	0.36138216
15	0x3e7cd749	0.246915
16	0x3f0e3b16	0.5555891
17	0x3e29b906	0.16574487
18	0xbd194bb4	-0.03742571
19	0x3de53c65	0.1119316
20	0xbead3e8c	-0.33836782
21	0x3e7814c9	0.24226679
22	0xbf6b63fc	-0.9194944
23	0x3ee092ba	0.43861943
24	0xbebda86c	-0.37042558
25	0xbdcecff6	-0.10098259
26	0x3e8db719	0.27678755
27	0xbf34f10a	-0.70680296
28	0x3f0dce8c	0.5539329
29	0xbed63c79	-0.41843012
30	0x3ec96b84	0.3933984
31	0xbea9db32	-0.33175045
32	0x3dc9d880	0.09855747
33	0xbdee36f2	-0.11631574
34	0xbe9de270	-0.3083682
35	0xbf274f9b	-0.65355843
36	0x3ef7c9c9	0.48396137
37	0xbd22ed93	-0.03977735
38	0xbc9bede0	-0.019034326
39	0x3ed40d89	0.41416577
40	0xbde8e393	-0.11371531
41	0x3f2e8ee8	0.6818681
42	0x3eab7aa8	0.33492017
43	0x3e3bc334	0.18336183
44	0xbf115752	-0.56773865
45	0x3e2e2190	0.1700499
46	0x3f0cbde7	0.5497727
47	0x3cd6576b	0.026164731
48	0xbd0a455c	-0.033757553
49	0xbf42284a	-0.75842726
50	0xbed9bfdb	-0.42529187
51	0x3e02bdbf	0.12767695
52	0xbf3c9ec2	-0.73679745
53	0xbe11ca29	-0.14237274
54	0xbf5ace5b	-0.85471123
55	0xbf23d792	-0.6400081
56	0xbaf75af6	-0.0018871713
57	0x3f3cd728	0.737658
58	0x3f227ba3	0.63469905
59	0xbef30cde	-0.47470754
60	0xbe451e6c	-0.19249886
61	0x3da95639	0.08268399
62	0xbe515422	-0.2044225
63	0xbeaee4eb	-0.34159026
64	0xbe4e58ef	-0.20151113
65	0x3ee3617a	0.44410306
66	0xbeb773f1	-0.35830644
67	0xbf126d83	-0.5719835
68	0xbef4f76c	-0.47845018
69	0x3e307b9c	0.17234653
70	0xbf486ae3	-0.78288096
71	0xbf7675e3	-0.9627363
72	0xbf97dd5e	-1.1864431
73	0x3db011bb	0.08597132
74	0x3ed71ade	0.42012686
75	0x3dfc9493	0.12333026
76	0xbe154ce2	-0.1458011
77	0x3e3f0a6d	0.18656321
78	0x3e770845	0.24124248
79	0x3e671940	0.22568226
80	0xbdca8a1c	-0.098896235
81	0x3e4e08fa	0.20120612
82	0xbe15be04	-0.14623266
83	0xbe4db48d	-0.20088406
84	0xbf0a3222	-0.53982747
85	0x39c8fd92	0.00038335897
86	0x3e2c3dc1	0.16820432
87	0x3f21fd11	0.63276774
88	0xbf1bfb83	-0.6093065
89	0xbef7ffeb	-0.48437437
90	0x3e692315	0.22767289
91	0xbe4909e2	-0.19632676
92	0xbe8bdbdf	-0.27316186
93	0xba3bb4dd	-0.00071604346
94	0x3eb9bd91	0.3627744
95	0xbe7140da	-0.23559895
96	0xbeb7b1ac	-0.3587774
97	0xbdc05978	-0.09392065
98	0x3dbcb9b5	0.09215108
99	0xbf18d254	-0.59695935
100	0x3ede8db9	0.434675
101	0x3d1bb104	0.038010612
102	0x3c46b5c0	0.0121282935
103	0x3f092e29	0.5358606
104	0xbe7534f7	-0.23945986
105	0x3e993b2e	0.29927963
106	0xbb922ffd	-0.004461287
107	0x3eb63f9f	0.35595414
108	0xbe63dd7b	-0.22252457
109	0x3e2e2dd1	0.17009665
110	0x3ea05a6f	0.31318995
111	0xbe94d98c	-0.29072225
112	0x3ea396d5	0.31951013
113	0x3f17366f	0.59067434
114	0xbe224915	-0.15848191
115	0x3eb2c904	0.34918988
116	0xbf11abe5	-0.56902915
117	0xbce78c92	-0.028265271
118	0x3dba1cd4	0.0908753
119	0xbee7dc98	-0.45285487
120	0x3f732250	0.9497423
121	0x3ea70bab	0.3262609
122	0x3f14a4f4	0.580642
123	0x3f2677d8	0.6502662
124	0xbec5a27f	-0.38600537
125	0xbe939cb6	-0.28830498
126	0x3f02a8c9	0.51038796
127	0x3e8eb21c	0.27870262
128	0xbf688f6d	-0.9084385
129	0x3e84fb23	0.25972852
130	0x3d76676c	0.060157225
131	0xbe74bfea	-0.23901334
132	0x3e8dff72	0.27733952
133	0x3f186877	0.595344
134	0x3ed0f5fb	0.40812668
135	0xbf124899	-0.57142025
136	0xbf403032	-0.7507354
137	0xbf361508	-0.7112584
138	0xbf0739be	-0.5282248
139	0xbe5ac100	-0.21362686
140	0xbc85e112	-0.016342673
141	0xbe0bd4a9	-0.13655342
142	0x3f163aca	0.58683455
143	0x3f29c6fc	0.6631925
144	0x3d76536c	0.06013815
145	0xbf400ce9	-0.750197
146	0x3db33e5f	0.08752131
147	0x3e26aead	0.16277571
148	0x3e953443	0.29141435
149	0x3dca5a43	0.09880497
150	0xbe8fbb34	-0.28072512
151	0xbe90684e	-0.28204578
152	0xbf2b1dd2	-0.6684238
153	0xbd56408d	-0.052307654
154	0x3dacb257	0.08432453
155	0xbeafd386	-0.34341067
156	0x3d476b9a	0.0486866
157	0xbe4c0c9d	-0.19926687
158	0x3f525c6e	0.82172287
159	0x3e65cb5b	0.22440855
160	0xbe583d82	-0.21117213
161	0x3f2e690d	0.68129045
162	0x3ea7fc96	0.32809895
163	0xbed9f1a3	-0.42567167
164	0xbedc61c7	-0.43043348
165	0xbde61e1b	-0.11236211
166	0x3efc2905	0.49250045
167	0xbe861277	-0.26185963
168	0x3e8c3097	0.2738082
169	0xbe0f94d1	-0.14021613
170	0xbf23719b	-0.63845223
171	0xbe68fc73	-0.22752552
172	0xbe3613c8	-0.17780983
173	0x3ccc4841	0.024936797
174	0xbeb3fdf8	-0.351547
175	0xbe21e0cf	-0.15808414
176	0xbe7099cb	-0.23496167
177	0xbe65b625	-0.22432764
178	0xbb40b3eb	-0.0029404114
179	0x3e66555f	0.22493504
180	0xbe8fe6ad	-0.2810568
181	0xbe1e4ee2	-0.15459779
182	0x3f005ada	0.5013863
183	0x3f458a1a	0.7716385
184	0x3e874d59	0.264262
185	0xbddb63c9	-0.10712392
186	0xbeb60916	-0.35553807
187	0xbde212ca	-0.1103874
188	0x3e423c79	0.18968381
189	0xbd7d8acb	-0.06189994
190	0xbe0afaad	-0.13572188
191	0x3f1a0760	0.60167503
192	0xbe47cb15	-0.19511063
193	0x3f2335bc	0.6375387
194	0x3e94b2a5	0.29042545
195	0xbeb82a43	-0.35969743
196	0x3d5fe6d5	0.054663498
197	0x3eaca9ab	0.33723196
198	0x3f3784bf	0.7168693
199	0x3d50525e	0.0508598
200	0x3da991a7	0.08279734
201	0xbee2f60c	-0.44328344
202	0x3e6f6196	0.2337707
203	0xbeb43ce9	-0.3520272
204	0x3c8e7729	0.017390804
205	0x3ebd02f7	0.36916324
206	0x3ddb72c5	0.1071525
207	0x3ea0663b	0.31327996
208	0xbe045c3a	-0.12925807
209	0xbe9fb456	-0.31192273
210	0x3e1a6c61	0.15080406
211	0xbdece5f0	-0.115672946
212	0x3d373bbb	0.044734698
213	0xbd40fa1d	-0.047113527
214	0xbd821c21	-0.063530214
215	0xbe010fea	-0.12603727
216	0x3e3e64b3	0.18593101
217	0xbda1847a	-0.07886596
218	0xbd5bd4e8	-0.05366984
219	0xbc398e57	-0.01132544
220	0xbe9f3a28	-0.31099057
221	0xbd9a9093	-0.075471066
222	0x3e8b3616	0.27189702
223	0x3ec458e0	0.38349056
224	0xbf19fa21	-0.6014729
225	0xbdc4ae3a	-0.096035436
226	0xbedc89f3	-0.43073997
227	0xbee733f6	-0.4515683
228	0x3dfb7eb3	0.12280025
229	0xbe338564	-0.17531353
230	0xbe0c48f2	-0.13699701
231	0xbe7f7d0f	-0.2495005
232	0xbdb38f97	-0.08767622
233	0xbd4cc039	-0.049988005
234	0xbeec0fbd	-0.46105757
235	0x3cce5afb	0.025189867
236	0x3f1465f8	0.5796809
237	0xbe429adc	-0.19004387
238	0x3e3d7012	0.18499783
239	0xbeae1a38	-0.34004378
240	0xbed66d10	-0.41880083
241	0xbdece06e	-0.11566244
242	0xbe241073	-0.160219
243	0x3e4e490b	0.20145051
244	0xbe360971	-0.17777039
245	0xbf3bb929	-0.73329407
246	0xbd78cbff	-0.06074142
247	0xbf12134d	-0.570607
248	0x3df4d3b1	0.119544394
249	0xbe9bf4d2	-0.3046022
250	0x3d0b2cd4	0.0339783
251	0xbdca3755	-0.09873835
252	0xbf3bd59e	-0.7337283
253	0xbeacd4a2	-0.33755976
254	0xbf23079b	-0.6368348
255	0x3e2baed8	0.16765916

network_body._body_endoder.seq_layers.2.bias f4 [128]
0	0xba1b688b	-0.0005928359
1	0xbd86f723	-0.06590106
2	0xbbef6013	-0.007305154
3	0xbdc95138	-0.09829944
4	0x3c113878	0.008863561
5	0x3cf9a14d	0.030472422
6	0x3d060c55	0.032726604
7	0x3bff79f6	0.0077965213
8	0x3c4d3a52	0.012526112
9	0x3d594641	0.053045515
10	0xbbf2e4a3	-0.0074125095
11	0xbc7f4c04	-0.015582088
12	0xbc4caae0	-0.012491912
13	0x3caa49b0	0.02078709
14	0x3dec7e1c	0.11547491
15	0x3d63a117	0.05557355
16	0x3ca0b2ea	0.019616563
17	0xbcd0a0f7	-0.025467379
18	0x3be7457c	0.0070578437
19	0x3c4531dd	0.012035814
20	0x3d3bc67c	0.045843586
21	0xbb4bb6b7	-0.0031084248
22	0x3d425341	0.04744268
23	0x3a2dfed3	0.0006637398
24	0xbc495d05	-0.012290244
25	0x3d4f328c	0.050585315
26	0x3d3f5fa3	0.046722066
27	0xbcec4eda	-0.028846193
28	0xbcb5d498	-0.0221961
29	0x3d69ffcf	0.057128724
30	0x3b081ceb	0.002076919
31	0xbdc6f437	-0.09714549
32	0x3baafefe	0.0052183857
33	0x3c2ddd81	0.010611893
34	0x3c847251	0.016167792
35	0xbd2b1502	-0.04176808
36	0x3ce0a0aa	0.02742036
37	0xbcca1861	-0.024669828
38	0xbc91cb28	-0.017797068
39	0x3c829703	0.015941149
40	0x3cc6124d	0.024178648
41	0xbcf706e7	-0.030154658
42	0x3cd87966	0.026425075
43	0xbbc833ab	-0.006109675
44	0xbd1b5184	-0.037919536
45	0xbd1cd66c	-0.038290426
46	0xbaa91386	-0.0012899495
47	0xbe0c8990	-0.13724351
48	0xbd62fe6d	-0.05541842
49	0x3d365d74	0.044522718
50	0x3cba5264	0.022744365
51	0x3c06db30	0.008230969
52	0x3d11f8f4	0.03563781
53	0xbc027f16	-0.00796487
54	0x3d172741	0.03690267
55	0xbd407e1e	-0.046995275
56	0x3bdef856	0.0068045063
57	0x3cfe9e4f	0.031081347
58	0xbcaf4813	-0.021396672
59	0xbd284f41	-0.041091207
60	0x3c3684f0	0.011140093
61	0x3d9c6ab3	0.07637539
62	0xbdf3b1b0	-0.118991256
63	0x3d192a4e	0.03739386
64	0xbd53c2bd	-0.05169939
65	0x3d412b03	0.04716016
66	0xbdec44aa	-0.11536534
67	0xbd030a2f	-0.031992134
68	0xbd43da53	-0.047815632
69	0xbd72d972	-0.059289403
70	0xbc3fd109	-0.011707553
71	0x3c7a790d	0.01528765
72	0xbd2dbec2	-0.04241825
73	0x3c1689b9	0.009188109
74	0xbdfa426d	-0.12219701
75	0x3d9515eb	0.07279571
76	0x3cb6c6e6	0.022311639
77	0xbd1c04a9	-0.03809038
78	0x3da74632	0.081676856
79	0xbd0e8c19	-0.034801576
80	0x3bacd538	0.005274441
81	0x3b82a8bc	0.0039874
82	0x3cd402dc	0.02588027
83	0x3cdeecfd	0.027212614
84	0xbd8b17b5	-0.06791631
85	0xbcac6408	-0.021043792
86	0xbc98c79f	-0.018649874
87	0xbbf714cf	-0.0075403224
88	0xbd09c077	-0.033630814
89	0xbe050c2f	-0.12992929
90	0x3cc7b700	0.024379253
91	0xbdc304e9	-0.09522421
92	0xbc6d5b28	-0.014487065
93	0xbd6d4a56	-0.05793222
94	0x3c05fa5b	0.008177365
95	0x3ca6603b	0.020309558
96	0x385acf78	5.216847e-05
97	0x3d2ee3df	0.042697784
98	0xbce17230	-0.02752027
99	0xbc952355	-0.018205324
100	0xbc8a25c0	-0.016863704
101	0xbd239eb8	-0.039946288
102	0xbb3bc89d	-0.002865351
103	0xbca2f7fa	-0.019893635
104	0x3cbc404a	0.022979874
105	0xbd9a600a	-0.07537849
106	0x3c1eb5e8	0.0096869245
107	0xbd7dc202	-0.0619526
108	0x3d4b6722	0.049658902
109	0xbdbbd415	-0.09171311
110	0x3d15e1ce	0.036592297
111	0x3cb1bac1	0.021695497
112	0xbc772f6c	-0.01508699
113	0xbd72a260	-0.059236884
114	0xbd5d5365	-0.05403461
115	0xbcb91410	-0.022592574
116	0xbd0d7b39	-0.034541342
117	0x3d6a77d1	0.057243172
118	0x3d322ea2	0.043501504
119	0x3c3e88b3	0.011629271
120	0xbb44a503	-0.0030005581
121	0xbd2d7587	-0.04234841
122	0x3ba03127	0.004888672
123	0x38277017	3.9920295e-05
124	0x3ce0375a	0.027370144
125	0xbcdf3bc6	-0.027250182
126	0xbc9e49b3	-0.019322252
127	0x3d05d458	0.03267321

network_body._body_endoder.seq_layers.2.weight f4 [128, 128]
0	0xbe40324a	-0.18769184
1	0xbd98c501	-0.074594505
2	0x3d9fe00a	0.07806404
3	0xbca5facd	-0.020261193
4	0xbe230c66	-0.15922698
5	0x3dde673a	0.10859533
6	0x3e155deb	0.14586608
7	0x3d9ebc75	0.07750789
8	0x3d33e143	0.043916
9	0xbe21436e	-0.15748379
10	0x3bb9178c	0.005648559
11	0xbe6000af	-0.21875261
12	0xbe81b264	-0.25331414
13	0x3dd733ee	0.10507952
14	0x3d0ac777	0.03388163
15	0xbc2d5751	-0.0105799
16	0xbda23ab1	-0.07921351
17	0xbe86544a	-0.26236182
18	0xbd3d811f	-0.046265718
19	0xbded1332	-0.11575927
20	0x3c8081fb	0.01568698
21	0xbd202024	-0.03909315
22	0xbe6f7658	-0.23384988
23	0xbe39e669	-0.18154301
24	0xbb66d6e5	-0.0035223302
25	0xbc2e79d3	-0.010649162
26	0xbd4b7859	-0.04967532
27	0xbe526843	-0.20547585
28	0xb7b67eb2	-2.1755088e-05
29	0x3e21cc91	0.15800692
30	0x3dbcb463	0.092140935
31	0xbe24792a	-0.16061845
32	0xbe58b463	-0.21162562
33	0xbcc57982	-0.024105791
34	0xbe150810	-0.14553857
35	0x3c562ede	0.013072697
36	0xbdbdf4a8	-0.0927518
37	0x3cb14bd0	0.021642596
38	0xbe23a52b	-0.15980975
39	0xbdb4dba0	-0.08830953
40	0x3d7d7859	0.06188235
41	0xbe008fb4	-0.12554818
42	0xbcf9000f	-0.030395536
43	0xbcecb431	-0.028894516
44	0xbdaf1dc4	-0.08550599
45	0xbe4ea8a4	-0.20181519
46	0xbd2c13ce	-0.042011075
47	0xbcb1cdd4	-0.021704592
48	0x3e1cd47d	0.15315433
49	0xbe87d84a	-0.26532203
50	0x3d6bda62	0.057581313
51	0xbe909542	-0.28238875
52	0x3e31233f	0.17298602
53	0xbe1822bf	-0.14857005
54	0xbe771b29	-0.24131455
55	0xbdefe431	-0.11713446
56	0xbe0e3648	-0.13887894
57	0x3bbff490	0.0058580115
58	0xbd90b167	-0.07065087
59	0xbdd12d6b	-0.10213741
60	0x3ad9f22f	0.0016627962
61	0xbe0fe079	-0.14050473
62	0xbe3b1cae	-0.18272659
63	0xbcd73f89	-0.026275413
64	0xbdb5485e	-0.088516936
65	0xbcfe3d3d	-0.03103506
66	0xbcda4e56	-0.026648682
67	0x3d1dc881	0.038521294
68	0xbdf6a72a	-0.12043603
69	0xbe31a8b7	-0.17349516
70	0xbdc9efaf	-0.09860169
71	0x3e072a8c	0.13199824
72	0x3dbd2600	0.092357635
73	0x3e0199d8	0.12656343
74	0xbd68197c	-0.05666493
75	0xbcf9fe22	-0.030516688
76	0xbe38e93a	-0.18057719
77	0x3c9d7a09	0.01922323
78	0xbd653e64	-0.055967703
79	0xbe864ca8	-0.2623036
80	0xbd52520d	-0.05134778
81	0x3e47cb5b	0.19511168
82	0xbe4f494a	-0.20242801
83	0xbe0ad543	-0.13557915
84	0xbe204a0b	-0.15653245
85	0x3dc21888	0.09477335
86	0x3d3f4998	0.046701044
87	0x3dc3d7ad	0.09562621
88	0x3e009d1f	0.12559937
89	0xbf003f1e	-0.5009631
90	0xbd232ee9	-0.03983966
91	0x3dfead5c	0.124354094
92	0xbdba3067	-0.09091263
93	0xbd4954e2	-0.049153216
94	0xbbcf5317	-0.0063270438
95	0xbe5d8c83	-0.21635632
96	0xbe15a8b1	-0.14615132
97	0xbdbbde8f	-0.09173309
98	0xbdcc5897	-0.09977835
99	0xbcaafd1c	-0.020872645
100	0x3c48c5d5	0.012254198
101	0x3dded257	0.10879963
102	0xbdb3b7e9	-0.087753125
103	0x3c6665f5	0.014062394
104	0xbb865ddc	-0.0041005444
105	0xbe5267a1	-0.20547344
106	0x3d85f61d	0.06541083
107	0xbda8f9a4	-0.0825074
108	0x3e0dc9dc	0.13846534
109	0xbdae6813	-0.08515944
110	0x3d1d8c37	0.038463797
111	0x3ae2e876	0.001731171
112	0x3dd785e3	0.10523584
113	0xbe912ca3	-0.28354368
114	0xbd189e29	-0.03726021
115	0x3d19b4b4	0.037525848
116	0xbd66d057	-0.056351032
117	0xbceddcb5	-0.029035905
118	0xbe00b386	-0.12568483
119	0x3d397c0b	0.045284312
120	0xbd85bb20	-0.06529832
121	0xbe162507	-0.14662562
122	0x3c073270	0.008251771
123	0xbdf0a33e	-0.11749886
124	0xbe6b3422	-0.22969106
125	0x3de00412	0.10938276
126	0x3dccdc34	0.10002938
127	0xbc72e6c7	-0.014825529
128	0x3de29b01	0.11064721
129	0xbd7e7c36	-0.062130176
130	0xbcf90f49	-0.030402796
131	0x3d9adb0f	0.07561313
132	0xbc6fa3db	-0.0146264685
133	0xbcbe318d	-0.023216987
134	0xbdabfacb	-0.08397444
135	0xbd79987f	-0.060936447
136	0xbc52816f	-0.012848242
137	0xbd88d054	-0.066803604
138	0xbe024978	-0.12723339
139	0x3dfba37b	0.12287041
140	0xbc9a39f3	-0.01882646
141	0x3d022cac	0.031780884
142	0xbd63f00a	-0.05564884
143	0x3da1550b	0.07877549
144	0xbda97480	-0.08274174
145	0xbd1ea708	-0.038733512
146	0xbb86573f	-0.004099756
147	0x3d38fc36	0.045162402
148	0xbdd62d45	-0.10457853
149	0xbcb10adb	-0.021611622
150	0xbe2ebd82	-0.17064479
151	0x3e2ab246	0.16669568
152	0xbd2ae2ef	-0.041720327
153	0xbdaa210c	-0.083070844
154	0x3bc0d2b1	0.0058844914
155	0xbd896e35	-0.067104734
156	0x3dd40552	0.10352577
157	0xbcd71533	-0.026255226
158	0x3e163ac0	0.14670849
159	0x3e005f8d	0.1253645
160	0xbd1997bf	-0.037498232
161	0x3d0b3f6c	0.03399603
162	0x3b86376e	0.004095963
163	0x3cadb86e	0.021206107
164	0x3da6b2c5	0.08139566
165	0x3ba3c9d5	0.0049984255
166	0x3e832e34	0.25621188
167	0xbb8dfacb	-0.0043328754
168	0x3dbd287d	0.09236238
169	0xbc3dd47b	-0.011586304
170	0x3d7a90be	0.061173193
171	0xbcba2e40	-0.022727132
172	0xbca075cf	-0.019587426
173	0xbb914579	-0.0044333306
174	0x3cd268a7	0.025684668
175	0xbc505c56	-0.012717327
176	0xbd357b0b	-0.044306796
177	0x3b4d5e6f	0.0031336804
178	0xbe158272	-0.14600542
179	0xbe34d2fa	-0.17658606
180	0x3d3c079e	0.0459057
181	0xbd193559	-0.037404392
182	0xbc4d5cdb	-0.0125343455
183	0x3ccdd963	0.025128072
184	0x39a721ad	0.00031877813
185	0x3c7644d4	0.015031058
186	0x3e1a46bf	0.1506605
187	0x3e36e1c0	0.17859554
188	0x3d1eca06	0.038766883
189	0xbd59f36d	-0.053210665
190	0x3c9f123a	0.01941787
191	0x3ce2c9c0	0.027684093
192	0x3bbe7b7c	0.0058130603
193	0x3c8517fe	0.016246792
194	0xbc88f671	-0.016719075
195	0x3e67bc2a	0.22630373
196	0x3db3ab7e	0.08772944
197	0x3dcaffdf	0.09912085
198	0x3e022364	0.12708813
199	0x3deae795	0.11469952
200	0xbd599eea	-0.053130068
201	0x3e785622	0.24251607
202	0x3d2b3814	0.041801527
203	0x3d7c09f1	0.06153292
204	0x3c8adcc4	0.016950972
205	0x3d9b313e	0.075777516
206	0xbe27796b	-0.16354911
207	0xbd8eff75	-0.06982318
208	0xbd937aec	-0.0720118
209	0x3cf531d2	0.029930983
210	0xbb9eb2d2	-0.0048430944
211	0xbe06c7c3	-0.1316214
212	0xbd26b6c9	-0.04070166
213	0x3e22f387	0.15913211
214	0xbe4376f3	-0.19088344
215	0x3e2e2422	0.17005971
216	0xbc1f7a7f	-0.009733795
217	0xbd6bbe50	-0.057554543
218	0x3d7b4ce9	0.061352644
219	0xbe46441c	-0.19361919
220	0xbd49ef17	-0.04930028
221	0xbe20dbee	-0.15708897
222	0xbc5940c6	-0.013260072
223	0xbc9f74eb	-0.01946493
224	0xbe2a5a40	-0.1663599
225	0xbe3785d0	-0.17922139
226	0x3c4d7f57	0.012542567
227	0xbd5727fc	-0.052528366
228	0x3ddb0cec	0.10695824
229	0xbc0949ab	-0.00837938
230	0x3d0668a4	0.032814637
231	0xbd27ec64	-0.040996924
232	0xbd8d47d2	-0.06898464
233	0x3d7ff2bc	0.06248735
234	0xbd336ab1	-0.04380292
235	0x3cb56855	0.022144476
236	0x3bf7ceaf	0.0075624804
237	0xbc321f62	-0.01087174
238	0xbcb83282	-0.022485022
239	0x3db39ab3	0.08769741
240	0x3dae64fe	0.085153565
241	0xbb7702a2	-0.0037690778
242	0xbc3cb4b6	-0.011517694
243	0x3c623d1f	0.013808518
244	0xbcb2979c	-0.021800809
245	0x3d4df201	0.05027962
246	0xbd4afeb9	-0.04955933
247	0xbddf776a	-0.10911448
248	0xbcd712f6	-0.026254158
249	0x3e04c841	0.12967016
250	0x3d7db446	0.0619395
251	0xbc813e66	-0.015776824
252	0x3d0ff37f	0.035144325
253	0x3cc41327	0.023934914
254	0xbd807e26	-0.06274061
255	0xbe2456de	-0.16048762

network_body.observation_encoder.processors.0.normalizer.running_mean f4 [8]
0	0x393c9162	0.00017983236
1	0xb9ada791	-0.00033121978
2	0x3f9bf41f	1.2183875
3	0x3f9bf41f	1.2183875
4	0x3f9bf41f	1.2183875
5	0x3fccba4c	1.5994353
6	0xbc3312fd	-0.01092982
7	0x401f2aed	2.486995
